NoteBook/Best_Model.pt (torch, 662325 bytes, 12 tensors)

conv1.weight f4 [16, 3, 3, 3]
0.18037534 -0.42107552 0.11342294 0.19646873 -0.22474822 -0.32615322 0.16695099 -0.0551412
-0.104381636 0.12830403 -0.480184 -0.014150021 0.29770744 0.040673878 -0.14396203 0.1756704
0.103129946 -0.15776016 -0.05237133 -0.2097067 0.21948464 0.24457589 -0.20748056 -0.14260472
0.008536778 0.12437023 -0.10868785 0.18628696 0.36452937 -0.06268958 -0.046307534 -0.41463575
-0.3757528 -0.059273444 -0.03904198 0.4285977 0.19386804 0.33225274 -0.15921436 0.15333089
-0.15632299 -0.45915738 -0.12505156 -0.06301373 0.36937037 -0.22915144 -0.003787334 0.050997276
-0.20958516 -0.19799638 -0.25909325 0.20357136 0.15516676 0.47686654 0.25966626 0.17829359
-0.08043913 -0.22204594 -0.37635908 -0.21495076 -0.11866736 -0.04545662 0.010198162 0.40170377
0.29183027 0.13110568 -0.25084138 -0.09344228 -0.1227473 -0.064449355 -0.23025772 -0.11628752
0.30788478 0.37043396 0.05154769 0.031055653 -0.078647874 0.008027306 0.100211374 -0.11084994
-0.12971987 -0.2519749 -0.104365304 -0.111104965 0.23032899 0.24994442 0.15745202 0.23598908
0.56424576 0.5317614 -0.06995945 0.07600959 0.024963107 -0.16340941 0.01629476 -0.22899497
-0.17735353 -0.3420329 -0.28401136 0.38160226 0.06349172 0.07499959 0.0465126 -0.27469552
0.02798818 -0.23129371 -0.26453564 -0.35138288 0.03526945 0.102218054 0.04155128 0.03993211
-0.033139206 0.20530875 0.13657352 0.13891606 0.10132215 -0.13122469 0.1028007 -0.015377957
-0.07785158 -0.03370694 0.15310964 -0.07658608 -0.24212375 0.09296816 -0.045102526 0.31425044
0.02500463 -0.14234482 0.08008498 0.24324705 0.07785616 -0.08408663 -0.17534217 -0.20286268
-0.3615311 -0.4333949 0.16457435 0.14693584 0.17534466 0.20411892 0.24592479 0.12311545
-0.24227639 -0.2831316 -0.27020827 0.16899231 0.022248352 0.18184389 0.15959898 0.1567666
0.011865111 -0.14428027 0.046914235 -0.13811707 0.043010116 0.23392993 0.24724501 -0.25852165
-0.061389033 0.05868854 0.5662196 -0.1534096 -0.22765043 0.28615203 -0.22517888 -0.035131745
-0.08712186 0.072562486 0.08203988 0.16779414 -0.1094841 -0.38578874 -0.22582695 -0.40656787
0.14035912 -0.31643474 -0.006746835 0.28830716 0.10246085 -0.030957751 0.24420485 -0.14975382
-0.23346156 -0.05100505 -0.242668 -0.06598407 0.35138807 -0.06342418 0.11092967 -0.08489884
0.051636387 0.047843356 0.16542204 0.14881685 0.13174926 0.021629402 -0.087247565 0.04696763
0.08457776 0.057591975 -0.049790714 -0.038102668 -0.06111541 0.18520834 0.06938345 -0.05263519
-0.21881512 0.17797343 -0.3031024 -0.0977855 0.17921385 -0.2849216 0.028543785 0.23656335
-0.2856969 -0.030967021 -0.31346345 -0.27063063 0.2881564 -0.10816053 0.34765887 -0.18840162
-0.075780675 0.030858677 0.27622783 0.06480803 0.06317938 0.4054598 0.40561792 0.43688488
-0.30661726 -0.08536649 -0.29586244 0.15578331 0.10152645 -0.27489045 0.13296483 -0.1292584
0.15708768 -0.23450573 -0.25018275 -0.22015901 -0.16791785 -0.038585525 -0.024664609 -0.24398178
-0.0075055556 -0.010330754 0.22045699 0.38448226 0.05826017 -0.03280595 -0.14888118 -0.13172215
00000000: 50b4 383e 3697 d7be 494a e83d 192f 493e
00000010: 6624 66be 8efd a6be 33f5 2a3e bddb 61bd
00000020: 0ac6 d5bd 2262 033e adda f5be 7dd5 67bc
00000030: 1c6d 983e a799 263d c86a 13be f1e2 333e
00000040: cb35 d33d e18b 21be 5283 56bd 5abd 56be
00000050: 95c0 603e 1a72 7a3e c975 54be f906 12be
00000060: d8dd 0b3c d2b5 fe3d bc97 debd 02c2 3e3e
00000070: 98a3 ba3e 6563 80bd f8ac 3dbd 234b d4be
00000080: ac62 c0be b6c8 72bd 7cea 1fbd 2871 db3e
00000090: 5885 463e 081d aa3e 1709 23be c602 1d3e
000000a0: 2213 20be ad16 ebbe 840d 00be 580d 81bd
000000b0: 1d1e bd3e ada6 6abe ec34 78bb 85e2 503d
000000c0: 7e9d 56be 90bf 4abe dfa7 84be 0375 503e
000000d0: 09e4 1e3e da27 f43e faf2 843e 9892 363e
000000e0: 45bd a4bd 0360 63be 23b2 c0be 0d1c 5cbe
000000f0: df07 f3bd b930 3abd 3116 273c 1eac cd3e
00000100: c76a 953e 9140 063e 486e 80be ab5e bfbd
00000110: f062 fbbd 06fe 83bd aec8 6bbe 2728 eebd
00000120: 13a3 9d3e 85a9 bd3e ac23 533d 6d68 fe3c
00000130: 2312 a1bd f684 033c 9f3b cd3d 4b05 e3bd
00000140: 49d5 04be db02 81be 7abd d5bd 008b e3bd
00000150: 5ddb 6b3e 6ef1 7f3e 1a3b 213e 1fa7 713e
00000160: 6972 103f 8421 083f e646 8fbd eaaa 9b3d
00000170: 6e7f cc3c cc54 27be 977c 853c a87d 6abe
00000180: 2a9c 35be f01e afbe f069 91be 5f61 c33e
00000190: f207 823d 6399 993d ff83 3e3d e4a4 8cbe
000001a0: 7847 e53c 42d8 6cbe 3771 87be 75e8 b3be
000001b0: b376 103d b357 d13d ad31 2a3d da8f 233d
000001c0: fabc 07bd 753c 523e eed9 0b3e 0340 0e3e
000001d0: fd81 cf3d c45f 06be 2c89 d23d d4f3 7bbc
000001e0: a670 9fbd 4a10 0abd c6c8 1c3e 2ad9 9cbd
000001f0: 4aef 77be 1766 be3d 6dbd 38bd 6fe5 a03e
00000200: 83d6 cc3c d7c2 11be 9803 a43d c115 793e
00000210: 0d73 9f3d 9c35 acbd e68c 33be 3cbb 4fbe
00000220: 9b1a b9be f0e5 ddbe 2e86 283e 5976 163e
00000230: 8d8d 333e 8d04 513e b5d3 7b3e f423 fc3d
00000240: 4d17 78be a0f6 90be bd58 8abe 520c 2d3e
00000250: 2d42 b63c 4935 3a3e ea6d 233e 6c87 203e
00000260: e265 423c 35be 13be 2429 403d 906e 0dbe
00000270: 602b 303d 548b 6f3e cc2d 7d3e f35c 84be
00000280: 1173 7bbd 6563 703d c5f3 103f 6817 1dbe
00000290: 321d 69be 8582 923e 4b95 66be 4ee6 0fbd
000002a0: f26c b2bd a49b 943d 8604 a83d 3ad2 2b3e
000002b0: 3339 e0bd 1a86 c5be 2e3f 67be aa29 d0be
000002c0: 4dba 0f3e bc03 a2be 8e14 ddbb ff9c 933e
000002d0: fed6 d13d 1c9b fdbc d610 7a3e 1159 19be
000002e0: 8c10 6fbe acea 50bd f67d 78be a822 87bd
000002f0: 23e9 b33e 89e4 81bd 182f e33d 71df adbd
00000300: ad80 533d 65f7 433d 6564 293e 7263 183e
00000310: 47e9 063e 2530 b13c daae b2bd 2161 403d
00000320: 1b37 ad3d 90e5 6b3d 59f1 4bbd 8b11 1cbd
00000330: 2754 7abd 41a7 3d3e e918 8e3d ff97 57bd
00000340: 1211 60be ab3e 363e 3d30 9bbe c443 c8bd
00000350: d683 373e 3ee1 91be a8d4 e93c aa3d 723e
00000360: dd46 92be 8dae fdbc 487e a0be 1990 8abe
00000370: 3c89 933e 4583 ddbd 5800 b23e 5bec 40be
00000380: e632 9bbd 56cb fc3c bc6d 8d3e 13ba 843d
00000390: 3164 813d 6d98 cf3e 27ad cf3e 60af df3e
000003a0: f0fc 9cbe a0d4 aebd 487b 97be a985 1f3e
000003b0: 19ed cf3d 71be 8cbe ef27 083e 505c 04be
000003c0: 98db 203e 4522 70be f417 80be 5d71 61be
000003d0: a8f2 2bbe db0b 1ebd 6f0d cabc 5cd6 79be
000003e0: 2af1 f5bb 5342 29bc 7abf 613e dcda c43e
000003f0: 37a2 6e3d 885f 06bd 4f74 18be 2ce2 06be

conv1.bias f4 [16]
-0.2487631 -0.06758257 -0.1603818 -0.25064185 -0.28281015 -0.06141274 -0.30158943 -0.1640519
-0.109959535 0.17210571 -0.011329537 -0.34327498 -0.071293704 0.042748388 -0.0020368823 -0.07228401
00000000: c1bb 7ebe bb68 8abd 203b 24be 2154 80be
00000010: 7ecc 90be ed8b 7bbd ee69 9abe 39fd 27be
00000020: 7732 e1bd 7b3c 303e 869f 39bc bdc1 afbe
00000030: 6f02 92bd ef18 2f3d 377d 05bb a409 94bd

conv2.weight f4 [32, 16, 3, 3]
-0.17616753 -0.4076837 -0.16087863 0.2798099 0.12601823 -0.21034388 0.05333923 0.49205753
0.1386186 -0.33962718 -0.016385743 -0.16249436 0.112309925 -0.15656973 -0.16464159 -0.17213091
0.017401107 0.030022983 0.16842741 0.015654381 -0.26972094 0.029407933 0.38393316 -0.037912022
-0.061468598 -0.29053947 0.06973516 0.31208 0.31850326 0.27950642 -0.22756232 -0.12781319
0.2298987 -0.20396867 -0.24417123 -0.027146768 0.08952086 0.13083246 -0.066075005 -0.1953194
0.37524468 0.12874602 -0.35899293 -0.4792201 -0.11317885 -0.39156333 -0.007694166 0.097423725
0.0804553 -0.53560466 0.113873385 0.24404417 0.27805197 -0.21312971 0.008529633 0.10642329
-0.07915497 0.11706751 -0.08571831 -0.0632324 0.047198117 -0.0072009875 -0.13648438 0.03131415
0.21938719 0.07514295 -0.3262312 -0.07357669 0.12576854 -0.4349158 -0.52305436 -0.19786373
-0.011167628 0.045494042 0.073483944 -0.21734983 0.20230217 -0.18046278 0.21803242 -0.4747632
0.026159251 0.16937074 0.073189214 0.020400597 -0.06988192 0.050414126 0.0073873084 0.100874856
-0.045426372 -0.21796241 -0.5339594 -0.31603903 0.2020594 0.24106005 -0.26302856 -0.17517352
0.17223032 0.34931323 0.14715677 0.027746629 0.19341467 0.28316832 -0.3865071 -0.23600146
0.20992316 -0.37252247 -0.5006735 -0.39997602 0.3186668 0.012326932 -0.22062221 0.07412228
0.47270226 0.27683538 -0.22352165 -0.41347843 0.115398705 -0.08114432 0.047205802 -0.29652783
-0.103926696 0.20095691 0.14322923 0.035576396 -0.27577877 0.021868236 -0.059096508 -0.21655187
-0.0912931 0.0056590796 -0.2207844 -0.16912244 0.07285597 0.06704029 -0.0968437 0.17403576
0.6057434 0.16318841 0.3704439 0.37991697 0.5205049 0.19580095 0.65757316 0.13161261
-0.10021321 -0.02921934 0.22271484 -0.36043516 -0.31190568 -0.23114027 -0.15733472 -0.27946332
-0.016038598 0.0011720121 -0.2813592 0.047923815 -0.1332955 -0.1067538 0.15679094 0.041977804
-0.038917635 -0.16599187 -0.3739889 -0.37072602 -0.11578492 -0.323756 -0.7815153 -0.15920034
-0.20377916 -0.3015519 -0.47865942 0.069939636 -0.07045922 -0.22963256 0.055286158 0.005712641
-0.09846324 -0.039066058 0.03718978 -0.092080235 -0.28544283 -0.27945226 -0.22689995 -0.16230722
-0.15916656 -0.03528033 -0.089942254 0.04002488 -0.05842658 0.0064133815 0.018279122 0.01576329
0.019892335 -0.101045445 0.021949595 -0.04820812 0.0767755 -0.074498504 0.011887193 0.03904445
-0.09341359 -0.017621033 -0.26151782 -0.025329247 -0.17447291 -0.2739848 0.027573898 -0.17479795
-0.008959124 -0.08101394 0.016781181 0.08039443 -0.24401447 -0.027448209 0.17613612 -0.10103573
0.042107295 -0.1317253 -0.06661131 -0.0022602784 -0.12188267 0.1420564 -0.25414178 0.026569048
0.06370899 -0.07947939 -0.26970148 -0.10907369 -0.06254853 -0.2498666 -0.33353385 0.08851338
-0.040180173 -0.17617105 0.16344522 0.054573473 0.026065003 0.042444184 0.15100884 -0.031844832
0.016705042 -0.048302602 0.19965027 0.0058736694 -0.27627987 -0.16285338 -0.0069113453 -0.29599413
-0.3678249 0.06971848 -0.19971025 -0.24815387 0.2284788 -0.031050004 0.12475965 0.14064941
00000000: 4365 34be ebbb d0be 5ebd 24be 3e43 8f3e
00000010: ec0a 013e 6364 57be 3d7a 5a3d f7ee fb3e
00000020: 09f2 0d3e 9de3 adbe 653b 86bc ec64 26be
00000030: bf02 e63d d153 20be ce97 28be 1643 30be
00000040: c48c 8e3c c2f2 f53c 3c78 2c3e 9e3d 803c
00000050: dd18 8abe e8e8 f03c e392 c43e a349 1bbd
00000060: 7fc6 7bbd 97c1 94be 4fd1 8e3d f3c8 9f3e
00000070: dc12 a33e 771b 8f3e 1906 69be 76e1 02be
00000080: 916a 6b3e 2add 50be 0608 7abe e662 debc
00000090: b656 b73d f2f8 053e 5552 87bd cf01 48be
000000a0: 1220 c03e ffd5 033e eccd b7be 565c f5be
000000b0: 50ca e7bd fd7a c8be 581f fcbb 1786 c73d
000000c0: c0c5 a43d 631d 09bf 7336 e93d b7e6 793e
000000d0: d45c 8e3e ad3e 5abe e0bf 0b3c 74f4 d93d
000000e0: 001c a2bd 17c1 ef3d 158d afbd fd7f 81bd
000000f0: d052 413d 43f6 ebbb 90c2 0bbe 4443 003d
00000100: 09a7 603e 8ce4 993d c707 a7be 60af 96bd
00000110: 78c9 003e 49ad debe e4e6 05bf ca9c 4abe
00000120: 6df8 36bc f657 3a3d c07e 963d f490 5ebe
00000130: 4d28 4f3e 3ccb 38be e443 5f3e 2a14 f3be
00000140: ed4b d63c 866f 2d3e 3ae4 953d 271f a73c
00000150: 411e 8fbd 0b7f 4e3d 3c11 f23b 7a97 ce3d
00000160: 0111 3abd 8a31 5fbe 90b1 08bf decf a1be
00000170: a9e8 4e3e 72d8 763e aeab 86be b060 33be
00000180: 255d 303e 2fd9 b23e 44b0 163e e64c e33c
00000190: 7f0e 463e 70fb 903e 42e4 c5be 5eaa 71be
000001a0: 19f6 563e 44bb bebe 232c 00bf a8c9 ccbe
000001b0: 4b28 a33e e6f6 493c caea 61be 6ccd 973d
000001c0: 0806 f23e 5ebd 8d3e dce2 64be 72b3 d3be
000001d0: 2856 ec3d fe2e a6bd df5a 413d 7fd2 97be
000001e0: 85d7 d4bd a6c7 4d3e afaa 123e 8eb8 113d
000001f0: e032 8dbe 0425 b33c 2e0f 72bd c6bf 5dbe
00000200: e0f7 babd cd6f b93b 4e15 62be 6f2e 2dbe
00000210: 8335 953d 6b4c 893d fd55 c6bd 6e36 323e
00000220: 0012 1b3f dd1a 273e d3aa bd3e 7a84 c23e
00000230: cf3f 053f 0b80 483e b756 283f 75c5 063e
00000240: 953c cdbd 665d efbc 5c0f 643e f58a b8be
00000250: 1ab2 9fbe 09b0 6cbe 5a1c 21be d115 8fbe
00000260: 6163 83bc 339e 993a 500e 90be c34b 443d
00000270: 9e7e 08be bca1 dabd ce8d 203e ebf0 2b3d
00000280: 1968 1fbd c6f9 29be 797b bfbe cdcf bdbe
00000290: a520 edbd 59c3 a5be 6311 48bf 6a05 23be
000002a0: 7cab 50be 0365 9abe d912 f5be 833c 8f3d
000002b0: ec4c 90bd cc24 6bbe bd73 623d 1b31 bb3b
000002c0: 18a7 c9bd bb03 20bd 5054 183d 9094 bcbd
000002d0: 9025 92be 5e14 8fbe 7658 68be dd33 26be
000002e0: 8ffc 22be 1b82 10bd a533 b8bd 21f1 233d
000002f0: b650 6fbd 5827 d23b 19be 953c 0422 813c
00000300: 40f5 a23c eaf0 cebd a3cf b33c e175 45bd
00000310: 793c 9d3d ac92 98bd 80c2 423c 13ed 1f3d
00000320: a04f bfbd fc59 90bc aae5 85be 487f cfbc
00000330: 07a9 32be bc47 8cbe a8e2 e13c 3cfe 32be
00000340: 4ac9 12bc a3ea a5bd b078 893c d6a5 a43d
00000350: eede 79be 11db e0bc 075d 343e d2eb cebd
00000360: b378 2c3d ffe2 06be 836b 88bd 2e21 14bb
00000370: 9f9d f9bd 3c77 113e df1e 82be 55a7 d93c
00000380: dc79 823d 17c6 a2bd 5016 8abe 0762 dfbd
00000390: 7219 80bd 08dd 7fbe f3c4 aabe 8146 b53d
000003a0: f793 24bd 2f66 34be 2f5e 273e 6f88 5f3d
000003b0: 4686 d53c f4d9 2d3d 10a2 1a3e ba6f 02bd
000003c0: 03d9 883c f3d8 45bd 1f71 4c3e e977 c03b
000003d0: 8e74 8dbe 09c3 26be 9178 e2bb 8b8c 97be
000003e0: 8c53 bcbe 90c8 8e3d d880 4cbe 0c1c 7ebe
000003f0: 59f6 693e 945c febc fd81 ff3d 6606 103e

conv2.bias f4 [32]
0.024695748 0.3386931 0.28089586 0.018493418 -0.23784903 -0.012517829 0.06891072 0.37807193
-0.029479083 0.5564726 -0.15711015 0.04983657 0.053414833 0.07854464 -0.43742788 0.22104669
-0.0154876495 -0.06466774 0.16002207 -0.19279446 0.16813506 -0.01744453 -0.15218131 0.10461464
0.14863376 -0.03613566 -0.23566802 -0.17903163 0.17423527 0.21401624 -0.2844869 0.08288783
00000000: bd4e ca3c 2f69 ad3e 95d1 8f3e 827f 973c
00000010: b28e 73be 9517 4dbc 1021 8d3d a592 c13e
00000020: 1e7e f1bc fd74 0e3f 7ce1 20be 6e21 4c3d
00000030: 83c9 5a3d 03dc a03d 8cf6 dfbe 105a 623e
00000040: e9bf 7dbc 8570 84bd d3dc 233e e96b 45be
00000050: 992b 2c3e d5e7 8ebc 6bd5 1bbe 3340 d63d
00000060: 7333 183e fc02 14bd f552 71be 1154 37be
00000070: bb6a 323e 1327 5b3e 44a8 91be 18c1 a93d

conv3.weight f4 [64, 32, 3, 3]
0.052713245 -0.014991424 -0.07545811 -0.011290585 0.24369545 -0.044375677 -0.0879599 -0.13767137
-0.020307977 -0.5126201 -0.32642776 0.0067360764 0.23779614 0.1945798 0.18380643 0.20855802
0.2060421 0.068705 -0.088503815 0.119431 0.18510367 -0.21973538 0.110863775 0.36057273
-0.036140643 0.040689785 0.35336238 0.064676136 -0.009488013 0.22254665 0.23153046 0.31856984
-0.14003111 -0.11383458 -0.15759124 0.06536535 -0.43678036 -0.38921618 -0.14652096 -0.2634189
-0.008145899 0.020294372 -0.25703812 0.32036152 -0.1535117 -0.25529227 0.13155791 0.16387032
0.102084264 -0.08392047 0.22615427 -0.019521372 -0.08921112 -0.13200508 0.33725607 0.10311124
0.1848863 0.17603767 0.29580018 -0.025396217 -0.39080727 -0.21278806 -0.40253365 0.33276856
0.26590446 0.09025037 -0.62254035 0.17567268 0.51348007 -0.33585992 -0.052635837 0.36234266
0.3218357 0.107385576 -0.20035899 0.22748765 -0.061573133 0.0016930941 -0.02507748 -0.1376082
-0.18406554 -0.14900891 0.1731429 0.28395084 -0.5357798 -0.18574023 0.13613015 -0.17243065
-0.06475637 0.36129838 0.12257755 -0.002736058 -0.025979789 0.064159915 -0.44663793 0.053097222
-0.39796576 0.029943671 -0.0635962 0.09035526 0.076763235 0.4626312 -0.16648263 0.19088222
0.09956071 -0.1477487 0.021198899 -0.28171265 -0.11754838 -0.26410255 0.2663875 -0.31324664
-0.099126466 0.013691843 0.025248768 -0.18631944 -0.16992973 -0.23401245 0.1343608 0.44355577
-0.097423024 0.15088378 0.30140284 -0.22828446 0.08015153 0.11531562 0.4112984 0.09244702
-0.11404265 0.37831917 0.04847333 -0.11729591 0.0035409199 -0.06263611 0.22092138 0.19049801
-0.09244317 -0.585126 0.34662998 -0.4245838 -0.5329134 0.15426393 -0.20303978 -0.23877674
-0.1673385 -0.13515922 0.066682 0.160245 0.08451844 0.35719553 0.008542638 0.1317245
-0.15156248 0.2562232 0.12570132 0.06534366 -0.29575142 -0.28784588 0.25406423 -0.02557664
-0.047827017 0.6496302 -0.0735753 -0.3365894 0.21433614 -0.69801176 -0.32131708 0.32965562
-0.13209067 -0.22738121 0.24063069 -0.03843322 -0.04474817 -0.29608816 0.2303634 -0.008558536
-0.40754145 -0.31860346 -0.22531736 -0.24696952 0.38014904 -0.18694161 -0.310165 0.04914445
0.008382078 -0.3068811 -0.10825102 0.008484626 0.1851461 0.2972642 0.19220364 -0.049370073
-0.23437823 -0.22156864 0.10027428 0.026199024 0.23495151 0.021195251 0.004264735 0.04194472
-0.061670832 0.076657064 0.030958908 0.059916034 -0.024033843 -0.035353396 0.041168414 -0.4197369
-0.1175493 0.1977117 -0.15130551 0.03690493 0.17537028 0.17569119 -0.31176555 -0.06599055
0.0073807607 -0.00593243 -0.09708396 0.12278565 -0.0944275 0.15497132 -0.10586687 -0.47732818
-0.2712936 -0.4246631 -0.2744993 -0.026010156 0.14856917 0.040249374 0.049568363 -0.3848588
-0.19904594 -0.057101533 0.18207929 -0.012641111 0.047412302 -0.018514812 -0.15747422 -0.35494927
-0.18826449 0.028012179 0.0042739683 -0.13827363 -0.47325948 -0.4517 0.039395213 -0.4946395
-0.20494092 -0.08826662 -0.057389434 -0.13877675 -0.1783691 -0.05963423 0.18666399 -1.1661141
00000000: d8e9 573d 979e 75bc c889 9abd 25fc 38bc
00000010: 4d8b 793e 45c3 35bd 5224 b4bd b9f9 0cbe
00000020: ea5c a6bc 123b 03bf 8a21 a7be 4eba dc3b
00000030: d580 733e ed3f 473e c137 3c3e 3c90 553e
00000040: b3fc 523e 35b5 8c3d 7d41 b5bd 3d98 f43d
00000050: d18b 3d3e 5002 61be 8c0c e33d fd9c b83e
00000060: 3608 14bd 55aa 263d eaeb b43e ec74 843d
00000070: 9c73 1bbc 45e3 633e 5216 6d3e 961b a33e
00000080: 5164 0fbe 1b22 e9bd 995f 21be 45de 853d
00000090: ada1 dfbe 5847 c7be 9709 16be d8de 86be
000000a0: 6076 05bc 6240 a63c 809a 83be 6d06 a43e
000000b0: 2c32 1dbe abb5 82be 1eb7 063e 9fcd 273e
000000c0: 8e11 d13d 7fde abbd fc94 673e 49eb 9fbc
000000d0: 52b4 b6bd 572c 07be d4ac ac3e fc2b d33d
000000e0: d652 3d3e 3843 343e 1f73 973e ba0b d0bc
000000f0: e417 c8be 1de5 59be e418 cebe a460 aa3e
00000100: a124 883e 30d5 b83d ce5e 1fbf 8ae3 333e
00000110: 6e73 033f d5f5 abbe ad98 57bd fa84 b93e
00000120: a6c7 a43e f8ec db3d e82a 4dbe 86f2 683e
00000130: 1c34 7cbd d0ea dd3a 4a6f cdbc 2ae9 0cbe
00000140: ad7b 3cbe cb95 18be 5f4c 313e 0162 913e
00000150: dd28 09bf b032 3ebe b465 0b3e a991 30be
00000160: fd9e 84bd 1afc b83e f009 fb3d 704f 33bb
00000170: 91d3 d4bc 4666 833d baad e4be 797c 593d
00000180: 2bc2 cbbe 6e4c f53c b93e 82bd 2e0c b93d
00000190: 0b36 9d3d ffdd ec3e 6c7a 2abe a176 433e
000001a0: 7ce6 cb3d 6f4b 17be 50a9 ad3c a43c 90be
000001b0: 34bd f0bd 7338 87be f163 883e dd61 a0be
000001c0: d102 cbbd c053 603c 81d6 ce3c 86ca 3ebe
000001d0: 0f02 2ebe f6a0 6fbe e195 093e be19 e33e
000001e0: b985 c7bd 4781 1a3e 7951 9a3e 67c3 69be
000001f0: 7c26 a43d 992a ec3d b495 d23e dd54 bd3d
00000200: 318f e9bd 0db3 c13e f88b 463d d738 f0bd
00000210: c70e 683b 5c47 80bd 3739 623e e911 433e
00000220: d852 bdbd d1ca 15bf 7c79 b13e 0c63 d9be
00000230: 036d 08bf 5df7 1d3e a9e9 4fbe e481 74be
00000240: c95a 2bbe 2e67 0abe 9390 883d 4417 243e
00000250: 0118 ad3d 55e2 b63e 6cf6 0b3c cae2 063e
00000260: 3233 1bbe b02f 833e d9b7 003e e6d2 853d
00000270: bb6c 97be 8960 93be b514 823e 1a86 d1bc
00000280: 43e6 43bd 2a4e 263f a6ae 96bd 7255 acbe
00000290: ef7a 5b3e e6b0 32bf ac83 a4be 9fc8 a83e
000002a0: c742 07be 9fd6 68be e467 763e 276c 1dbd
000002b0: db49 37bd de98 97be 62e4 6b3e 1a39 0cbc
000002c0: 46a9 d0be fe1f a3be 98b9 66be 94e5 7cbe
000002d0: e5a2 c23e 9f6d 3fbe f2cd 9ebe b14b 493d
000002e0: fc54 093c 851f 9dbe b6b2 ddbd 1a03 0b3c
000002f0: f096 3d3e 0333 983e 08d1 443e 4638 4abd
00000300: d900 70be e4e2 62be 9a5c cd3d 569f d63c
00000310: 2197 703e aaa1 ad3c 31bf 8b3b 3ace 2b3d
00000320: 8e9a 7cbd 61fe 9c3d 899d fd3c 846a 753d
00000330: 9fe2 c4bc b9ce 10bd 36a0 283d c1e7 d6be
00000340: b0bd f0bd f074 4a3e d5ef 1abe a029 173d
00000350: 4494 333e 64e8 333e bc9f 9fbe 0e26 87bd
00000360: 4fda f13b d464 c2bb f5d3 c6bd 0b77 fb3d
00000370: 3563 c1bd cdb0 1e3e bbd0 d8bd 5c64 f4be
00000380: ffe6 8abe 716d d9be 2c8b 8cbe 4013 d5bc
00000390: 8422 183e 87dc 243d 3208 4b3d 360c c5be
000003a0: b3d2 4bbe 4ce3 69bd fe72 3a3e aa1c 4fbc
000003b0: 6733 423d 60ac 97bc ec40 21be e9bb b5be
000003c0: 68c8 40be cc79 e53c a50c 8c3b 9a97 0dbe
000003d0: 114f f2be 3945 e7be e05c 213d 6341 fdbe
000003e0: 08dc 51be 21c5 b4bd 2f11 6bbd 7e1b 0ebe
000003f0: 64a6 36be 0643 74bd d824 3f3e 3a43 95bf

conv3.bias f4 [64]
-0.02722375 0.23940773 0.15692239 0.22485693 0.06026886 0.27296275 -0.03734531 -0.16634026
0.23126705 -0.14499274 -0.4975233 -0.09354033 0.904245 -0.18618612 -0.3817048 -0.09717515
-0.23332001 -0.11415116 -0.35120535 0.5572109 -0.25906557 -0.023137107 -0.24657588 -0.1590509
0.13506363 -0.2349841 0.30780026 0.46638927 0.43232784 0.119487464 -0.066212274 0.10397353
-0.17366606 0.16106404 0.006649031 -0.30818444 -0.061818916 -0.41169703 -0.3417263 0.38000098
-0.39777252 0.1531727 -0.089383796 0.09210894 0.022267405 0.3224832 0.14224784 -0.14890067
0.10598298 -0.31427258 0.015707562 0.03208657 0.48676965 -0.22862881 0.18799059 0.004291664
0.18331727 0.23225053 0.3451396 -0.075041465 0.17297085 -0.016263396 0.17130032 -0.24199302
00000000: 5704 dfbc 4d27 753e 43b0 203e e540 663e
00000010: 7bdc 763d c6c1 8b3e 65f7 18bd 1a55 2abe
00000020: 45d1 6c3e fa78 14be 60bb febe 1392 bfbd
00000030: 9a7c 673f 93a7 3ebe d06e c3be c403 c7bd
00000040: 71eb 6ebe 15c8 e9bd 30d1 b3be 60a5 0e3f
00000050: 3ea4 84be 088a bdbc 637e 7cbe 3dde 22be
00000060: 1f4e 0a3e ac9f 70be ff97 9d3e 93ca ee3e
00000070: 135a dd3e d8b5 f43d 4d9a 87bd 13f0 d43d
00000080: 84d5 31be f9ed 243e 1de0 d93b 5aca 9dbe
00000090: d535 7dbd f4c9 d2be c0f6 aebe 7d8f c23e
000000a0: d7a8 cbbe 4ed9 1c3e da0e b7bd 9da3 bc3d
000000b0: 226a b63c 851c a53e 6ba9 113e 6b79 18be
000000c0: 9b0d d93d 56e8 a0be 25ad 803c 356d 033d
000000d0: df39 f93e ac1d 6abe 9b80 403e 16a1 8c3b
000000e0: 86b7 3b3e 15d3 6d3e 23b6 b03e 57af 99bd
000000f0: 451f 313e d03a 85bc 5a69 2f3e 05cd 77be

conv4.weight f4 [128, 64, 3, 3]
-0.04895365 -0.013585077 -0.0017922081 -0.0653654 -0.009797466 0.020165123 0.01615849 0.010377242
0.031016925 0.03311955 -0.04570531 -0.039868977 0.012610328 0.013112812 0.01011895 -0.01501752
-0.039348066 0.0003650288 0.01967324 -0.04438587 0.03421 -0.017804878 -0.047016736 -0.049475517
-0.018291855 0.03146926 0.012858342 -0.0018970628 -0.0030465215 -0.03620741 -0.049074873 -0.047795437
-0.0130970115 -0.05098823 -0.034430806 -0.010018795 -0.01572127 0.002801833 -0.040886786 -0.039819643
-0.032101817 -0.010916103 -0.040080126 0.017948288 0.025941117 0.019069742 0.015809838 -0.0037606605
-0.04460188 0.01870394 -0.00413604 -0.03436839 -0.04367565 -0.007261983 0.0304348 -0.012668611
-0.0034066946 -0.021038447 -0.002253905 -0.0009620549 0.02751298 -0.020290654 0.003829956 -0.00026244376
-0.029492106 0.0045724213 -0.007328589 -0.027801812 -0.04817702 0.005625601 0.018579386 -0.009838006
0.023651816 0.0030726593 -0.04061025 -0.000524052 0.03518567 -0.017910177 0.0019268668 -0.041754365
-0.007767646 0.011998119 -0.03863461 -0.029691529 -0.011164803 -0.05346935 -0.020431394 0.016485982
-0.029298734 -0.02598813 -0.015326483 -0.0033201808 -0.027857877 -0.013647092 -0.083324365 -0.052224543
-0.019326363 0.0106994165 -0.006945522 0.02599063 -0.021840781 0.003326045 0.025886301 0.033639323
-0.03288943 0.03522323 -0.0409909 0.009230551 0.03381343 -0.010761675 0.03320164 -0.044824973
-0.030800913 0.014731734 -0.029918686 -0.008406442 -0.032691408 -0.04026089 0.006110407 -0.0074954797
-0.057756767 -0.0706426 -0.022218578 0.015586043 -0.007760782 -0.04642271 -0.015333769 -0.03004093
0.024380906 -0.04240785 -0.05367409 -0.013025228 0.0046691103 -0.039671775 -0.0008089791 -0.009668092
-0.03714893 0.012623822 -0.007123992 -0.02952551 0.034488626 0.03723767 0.036684766 0.020799145
-0.050621677 -0.036174998 0.007948074 0.0021014228 -0.06916985 0.0077526914 0.027774468 -0.0133806225
-0.03061123 -0.029954001 -0.016097527 -0.031977188 -0.058822125 -0.050994933 0.026943214 -0.039173596
-0.025742015 -0.033028968 -0.0049335416 -0.010614065 0.012762099 -0.005896842 0.013216063 -0.018337727
0.005830994 0.028080255 0.027231704 0.005927096 0.006647257 -0.0466832 -0.005749338 -0.059991915
0.027760781 0.014603909 -0.024651427 -0.013657914 -0.026957143 -0.0349661 -0.02800958 -0.006282098
-0.04292553 -0.039233748 -0.015851201 -0.021508358 -0.02767838 -0.022777284 -0.050849967 -0.027476512
-0.0476921 0.011976517 0.004445069 0.022242803 -0.00071446755 0.021760426 -0.03990964 0.008946388
-0.017333675 -0.059749164 -0.014825875 0.015591832 0.017700782 -0.04389338 -0.042999443 0.017719602
-0.032190196 0.014009283 0.0084489975 -0.028874565 -0.008019682 0.015683917 -0.016811164 0.01898285
0.03635886 0.007422539 -0.0470599 -0.04077049 0.0011119897 0.029479932 -0.012943001 -0.008413101
-0.015514112 -0.053352885 -0.042653058 0.010247715 -0.011332258 -0.052210547 0.015444105 -0.024386302
-0.016837424 0.005760175 -0.062169287 -0.04256616 0.025144141 -0.051341016 -0.020591017 -0.0029779263
0.0090422295 -0.022715008 0.029874539 -0.03055795 -0.0016302385 -0.0023906121 -0.050042823 -0.009141633
0.017762586 -0.010505272 -0.045512427 0.020530328 -0.052743595 -0.009073656 -0.021079803 0.018970484
00000000: 9f83 48bd f193 5ebc 86e8 eaba 4bde 85bd
00000010: 8d85 20bc 5431 a53c cf5e 843c 4f05 2a3c
00000020: 3517 fe3c 5ea8 073d 7e35 3bbd a74d 23bd
00000030: 8d9b 4e3c 1fd7 563c f4c9 253c 0b0c 76bc
00000040: 702b 21bd 5661 bf39 c629 a13c f5cd 35bd
00000050: c91f 0c3d 89db 91bc 9f94 40bd d7a6 4abd
00000060: cdd8 95bc e9e5 003d ccab 523c dda6 f8ba
00000070: 26a8 47bb 394e 14bd bc02 49bd 26c5 43bd
00000080: d994 56bc 09d9 50bd 5107 0dbd df25 24bc
00000090: e5c9 80bc f59e 373b e778 27bd ec19 23bd
000000a0: 327d 03bd 74d9 32bc 0f2b 24bd 4a08 933c
000000b0: 7782 d43c 2638 9c3c a283 813c 6a75 76bb
000000c0: 76b0 36bd 0139 993c 9e87 87bb dec5 0cbd
000000d0: 3de5 32bd eef5 edbb 6752 f93c 0190 4fbc
000000e0: da42 5fbb d258 acbc 40b6 13bb 6932 7cba
000000f0: e762 e13c 9638 a6bc 0000 7b3b 9b98 89b9
00000100: 6e99 f1bc 40d4 953b a924 f0bb a0c0 e3bc
00000110: 4455 45bd f656 b83b cc33 983c 972f 21bc
00000120: 74c1 c13c ab5e 493b ef56 26bd 8960 09ba
00000130: d91e 103d 5db8 92bc ec8e fc3a a006 2bbd
00000140: bd87 febb c293 443c 533f 1ebd a63b f3bc
00000150: 94ec 36bc ad02 5bbd bd5f a7bc 9c0d 873c
00000160: e603 f0bc 0fe5 d4bc ee1b 7bbc 6497 59bb
00000170: 3436 e4bc 0d98 5fbc f7a5 aabd 67e9 55bd
00000180: 5252 9ebc 9b4c 2f3c 4397 e3bb 4dea d43c
00000190: 70eb b2bc c7f9 593b 820f d43c 63c9 093d
000001a0: 11b7 06bd 3c46 103d 13e6 27bd bd3b 173c
000001b0: f47f 0a3d bd51 30bc 71fe 073d 649a 37bd
000001c0: 3252 fcbc 5f5d 713c 0818 f5bc 2cbb 09bc
000001d0: 6de7 05bd 9ae8 24bd cf39 c83b a49c f5bb
000001e0: 5c92 6cbd 11ad 90bd bc03 b6bc 9a5c 7f3c
000001f0: 284e febb bd25 3ebd 7d3a 7bbc 6518 f6bc
00000200: 77ba c73c dbb3 2dbd 5dd9 5bbd c467 55bc
00000210: 56ff 983b df7e 22bd ab11 54ba eb66 1ebc
00000220: 7a29 18bd 26d4 4e3c 6070 e9bb 7bdf f1bc
00000230: f243 0d3d 8786 183d c442 163d f862 aa3c
00000240: ad58 4fbd 3c2c 14bd a338 023c 06b8 093b
00000250: eca8 8dbd 4a0a fe3b 4887 e33c 663a 5bbc
00000260: 67c4 fabc 1862 f5bc f6de 83bc 83fa 02bd
00000270: 78ef 70bd 10e0 50bd 04b8 dc3c 7e74 20bd
00000280: ebe0 d2bc 6249 07bd 8ca9 a1bb 9ee6 2dbc
00000290: 1f18 513c 4c3a c1bb 3088 583c 0039 96bc
000002a0: ec11 bf3b 9008 e63c 0615 df3c 1638 c23b
000002b0: 3cd1 d93b e236 3fbd f164 bcbb 15ba 75bd
000002c0: 946a e33c 3c45 6f3c caf1 c9bc 71c5 5fbc
000002d0: 3ad5 dcbc 9d38 0fbd 5974 e5bc 0fda cdbb
000002e0: aed2 2fbd 91b3 20bd 61da 81bc 4c32 b0bc
000002f0: c5bd e2bc 6d97 babc 0e48 50bd 6c16 e1bc
00000300: cb58 43bd 2739 443c f1a7 913b 8a36 b63c
00000310: 1b4b 3bba ec42 b23c 4a78 23bd df93 123c
00000320: 5aff 8dbc 8abb 74bd 3ae8 72bc e274 7f3c
00000330: 3b01 913c 8bc9 33bd 2f20 30bd b328 913c
00000340: ded9 03bd 3187 653c aa6d 0a3c 5a8a ecbc
00000350: fc64 03bc 8f7b 803c 91b7 89bc ec81 9b3c
00000360: 07ed 143d c538 f33b e2c1 40bd f5fe 26bd
00000370: 2fc0 913a e67f f13c e20e 54bc 1ad7 09bc
00000380: e72e 7ebc 8e88 5abd f9b4 2ebd 08e6 273c
00000390: efaa 39bc bada 55bd 4509 7d3c c8c5 c7bc
000003a0: a3ee 89bc dabf bc3b 39a5 7ebd db59 2ebd
000003b0: 16fb cd3c f54a 52bd 7eae a8bc 5029 43bb
000003c0: dc25 143c d314 babc 73bb f43c aa54 fabc
000003d0: baad d5ba d1ab 1cbb b4f9 4cbd cac6 15bc
000003e0: d882 913c 4e1e 2cbc 3d6b 3abd 382f a83c
000003f0: ab09 58bd aca9 14bc 8daf acbc fd67 9b3c

conv4.bias f4 [128]
-0.017566295 0.15763175 -0.07739633 0.2963522 -0.07464417 -0.161135 -0.036732003 0.19324955
-0.3804493 -0.11103698 -0.039353073 0.08753196 0.017310655 -0.06372733 -0.24985112 -0.025107345
-0.115699045 -0.286898 -0.33186716 -0.13166896 0.15749082 -0.25606084 -0.04283532 -0.22817016
-0.057607666 -0.0193726 -0.2346546 0.1572855 0.31188908 -0.2034847 -0.16661435 0.120742224
0.07201504 -0.0030929781 -0.41790724 -0.17364 0.010153677 -0.07835671 0.012829745 0.0005272157
-0.03262298 -0.07489811 -0.20144582 -0.1464177 -0.35984325 -0.039386697 -0.25305676 0.08961417
0.20844968 -0.35464188 -0.26195887 0.29152587 0.34864563 -0.06800642 -0.07184751 -0.012985978
-0.26391688 -0.39790103 -0.07545449 -0.2985249 -0.093707256 -0.18074577 0.0065683196 -0.054448374
-0.040108223 -0.10039264 -0.033385176 -0.16728368 -0.14553005 0.35648656 -0.00549038 -0.29688922
0.46822992 -0.01849875 -0.24744289 0.26484132 -0.07225683 0.10383309 -0.062941715 -0.13393919
0.10734111 -0.016352495 -0.18795702 -0.19350412 0.10838392 -0.11951104 -0.064352274 0.16128533
0.35046297 -0.086410955 -0.08371035 -0.4926693 0.02950816 -0.007493147 -0.11717989 -0.13751382
-0.4790884 0.103767626 -0.010119621 0.067471854 -0.05780909 -0.26031998 0.094895616 -0.048366852
0.022520026 -0.20328201 -0.07766116 -0.025048567 -0.17670533 -0.29061568 0.11479511 -0.009050712
-0.12680624 -0.21250641 -0.08857885 -0.18872523 -0.1949547 -0.07765206 -0.11869762 0.22521535
0.025360003 -0.24158031 -0.028517675 0.096519046 0.08256595 0.45885456 -0.070848875 -0.44946694
00000000: 31e7 8fbc 386a 213e f881 9ebd 7abb 973e
00000010: 0bdf 98bd 9300 25be 4c74 16bd 36e3 453e
00000020: 40ca c2be 5b67 e3bd b030 21bd f543 b33d
00000030: 13cf 8d3c 7983 82bd f9d8 7fbe ebad cdbc
00000040: 9ff3 ecbd 4be4 92be 7eea a9be 3ad4 06be
00000050: 4645 213e 681a 83be 1774 2fbd 70a5 69be
00000060: 04f6 6bbd 49b3 9ebc 4c49 70be 730f 213e
00000070: edaf 9f3e 4b5e 50be f49c 2abe b347 f73d
00000080: 9f7c 933d 90b3 4abb f0f7 d5be afce 31be
00000090: 9c5b 263c 7c79 a0bd da33 523c d934 0a3a
000000a0: ad9f 05bd 2e64 99bd d047 4ebe 86ee 15be
000000b0: 603d b8be f253 21bd a890 81be a287 b73d
000000c0: d573 553e 9f93 b5be 791f 86be e142 953e
000000d0: ae81 b23e f346 8bbd ca24 93bd 24c3 54bc
000000e0: 1d20 87be afb9 cbbe e287 9abd 41d8 98be
000000f0: 97e9 bfbd 6b15 39be 0f3b d73b 4205 5fbd
00000100: 8548 24bd a89a cdbd e5be 08bd 6a4c 2bbe
00000110: d405 15be 6885 b63e a5e8 b3bb dd01 98be
00000120: d5bb ef3e b18a 97bc ab61 7dbe 4899 873e
00000130: 64fb 93bd 71a6 d43d 96e7 80bd 5b27 09be
00000140: a8d5 db3d abf5 85bc ce77 40be f225 46be
00000150: 63f8 dd3d 34c2 f4bd 20cb 83bd fb27 253e
00000160: e26f b33e 3af8 b0bd 5570 abbd 273f fcbe
00000170: 19bb f13c 1389 f5bb 03fc efbd 6cd0 0cbe
00000180: 134b f5be 1f84 d43d c4cc 25bc af2e 8a3d
00000190: 39c9 6cbd a948 85be a258 c23d 521c 46bd
000001a0: eb7b b83c 2929 50be d00c 9fbd a732 cdbc
000001b0: 3ef2 34be 94cb 94be b319 eb3d 7049 14bc
000001c0: 7fd9 01be 489b 59be d468 b5bd 3041 41be
000001d0: 34a2 47be 0b08 9fbd bd17 f3bd da9e 663e
000001e0: c8bf cf3c d460 77be e69d e9bc c7ab c53d
000001f0: 5618 a93d fcee ea3e 3719 91bd 8820 e6be

Linear1.weight f4 [128, 512]
0.016082205 -0.0033196094 0.027603103 0.00395457 -0.045185313 -0.034486696 -0.067821406 -0.062086694
0.0017875731 0.016370304 -0.061274882 0.013054033 -0.0044126394 -0.043802794 -0.034580912 -0.04558831
0.009353961 -0.034917135 0.013592964 0.0051691737 0.0060592256 -0.027303357 -0.01775614 -0.04246971
-0.01023339 -0.027733278 -0.02263868 0.007197625 0.01215899 -0.0018694765 -0.002304306 -0.028942114
-0.04120586 -0.04451252 -0.036494296 -0.012486409 0.015131077 -0.040342476 0.013304003 -0.0009965188
0.011793842 -0.012938661 0.01593807 5.3113836e-05 0.014308913 -0.063507736 -0.035825044 -0.04084727
-0.024361635 -0.050636657 -0.055522777 -0.0202287 -4.3830092e-05 0.02937572 -0.027657203 0.011336043
-0.028565628 -0.0076966463 -0.069501564 -0.034917545 -0.019755652 0.02799248 0.023563221 -0.009100179
-0.01701881 -0.049143743 -0.025146965 -6.009808e-05 0.030936887 -0.044617157 -0.037037984 -0.0046963925
-0.020727554 0.0040766126 -0.028124519 -0.006819131 -0.034275983 -0.0184011 0.038460013 -0.038644575
-0.040271536 0.04213541 0.0044761584 -0.0025064098 0.0016667523 -0.037139166 0.023354532 0.020793047
-0.039208442 -0.019307472 -0.012803064 -0.009359013 -0.06892465 0.029180283 -0.018830653 -0.040172417
0.008344647 -0.06664719 -0.015986685 -0.0429693 -0.043403637 -0.026315587 -0.03108017 -0.027964363
-0.002158358 -0.070865996 -0.026230745 -0.036101516 -0.029004073 -0.040750213 0.0141634 -0.045602754
-0.042526126 -0.0048575783 0.021817071 -0.038735293 -0.01119387 0.0036481514 0.03357954 -0.020655617
-0.032239467 -0.03326956 -0.03862449 -0.045144446 -0.0061503793 -0.013413934 -0.0078385845 -0.0510061
-0.05638875 -0.0029779256 0.010026804 -0.0056728567 0.027138768 -0.04934171 0.014101913 -0.042071182
-0.0637871 -0.037126914 0.021700446 -0.0040437463 0.0042215763 -0.0268332 -0.0041468292 -0.009542556
0.016982486 -0.06060332 0.012693165 -0.033893634 -0.052549783 -0.027163208 4.1641444e-05 -0.0005281992
-0.019445453 0.005933136 0.011215712 0.013083905 0.040581744 0.009346991 -0.03382424 -0.05157684
-0.024921274 0.013868981 0.038500443 -0.055828944 0.002556102 -0.021182083 0.023095196 -0.018170603
0.024949206 -0.0025725658 0.0071006683 -0.027518293 -0.003454905 -0.02725229 0.011256161 -0.0537906
-0.0059911264 -0.025751868 0.016863983 -0.041657742 0.008691712 -0.042999394 -0.025814727 0.0002248707
-0.035739023 -0.0028865854 0.0065951445 -0.017557789 -0.026858734 -0.04882807 -0.02750449 -0.05201554
-0.06497006 -0.010483816 -0.018608369 -0.0037191897 -0.018187832 -0.00022388945 -0.031024229 -0.001165419
-0.021598525 -0.017033232 -0.04625096 -0.01103405 -0.028064305 -0.06180977 -0.035026696 0.0038710048
-0.010989999 -0.05593225 -0.041364666 -0.057144307 0.03954769 0.036187578 -0.030206736 0.00054019614
0.027814006 -0.02677558 0.028794887 -0.00085782434 -0.04272634 0.026403142 0.008669203 -0.03225914
-0.008043146 -0.06962598 -0.055205114 -0.025335878 -0.004386169 -0.020516697 -0.0041531096 0.000501813
0.022885675 -0.008795376 0.014351992 -0.041018724 -0.018509615 -0.022957057 -0.047469772 -0.038114298
-0.019795053 -0.009130471 0.047863957 0.02941476 -0.033097997 -0.0463706 -0.04991263 0.004165976
-0.0005514402 -0.031609215 0.01615767 -0.012867853 0.004796011 0.0423775 -0.011597253 0.035647955
00000000: d4be 833c ce8d 59bb e71f e23c 5695 813b
00000010: 3c14 39bd ec41 0dbd f3e5 8abd 9e4e 7ebd
00000020: 004d ea3a 041b 863c 5ffb 7abd 95e0 553c
00000030: e797 90bb 8f6a 33bd b7a4 0dbd cfba 3abd
00000040: 5b41 193c 4505 0fbd 06b5 5e3c 2c62 a93b
00000050: 788c c63b 4aab dfbc 5375 91bc b8f4 2dbd
00000060: f3a9 27bc e630 e3bc c174 b9bc 0eda eb3b
00000070: 8036 473c 3909 f5ba d703 17bb 0318 edbc
00000080: 7ac7 28bd c352 36bd 0b7b 15bd cc93 4cbc
00000090: 56e8 773c 273e 25bd 08f9 593c 9f9d 82ba
000000a0: f53a 413c adfc 53bc 8e90 823c 8cc6 5e38
000000b0: ee6f 6a3c 5810 82bd 48bd 12bd 784f 27bd
000000c0: 0d92 c7bc 6268 4fbd da6b 63bd a9b6 a5bc
000000d0: 34d6 37b8 5aa5 f03c 5c91 e2bc cfba 393c
000000e0: 7702 eabc 2634 fcbb d656 8ebd b305 0fbd
000000f0: 9bd6 a1bc 7c50 e53c a807 c13c eb18 15bc
00000100: 086b 8bbc f34a 49bd 0201 cebc d211 7cb8
00000110: 5b6f fd3c 7bc0 36bd 24b5 17bd 32e4 99bb
00000120: d5cc a9bc 1b95 853b 6465 e6bc 0473 dfbb
00000130: f964 0cbd e7bd 96bc 3f88 1d3d c649 1ebd
00000140: c4f3 24bd 2e96 2c3d bdac 923b 9442 24bb
00000150: ed76 da3a 3d1f 18bd 0152 bf3c 2e56 aa3c
00000160: 0899 20bd b42a 9ebc f1c3 51bc 8c56 19bc
00000170: 5e28 8dbd 7d0b ef3c be42 9abc d58b 24bd
00000180: fcb7 083c 527e 88bd 82f6 82bc 9400 30bd
00000190: 03c8 31bd c993 d7bc d79b febc 8515 e5bc
000001a0: 3d73 0dbb 3122 91bd dce1 d6bc 2fdf 13bd
000001b0: f399 edbc b2e9 26bd 9b0d 683c f4c9 3abd
000001c0: e02f 2ebd 522c 9fbb b7b9 b23c e6a8 1ebd
000001d0: 7e66 37bc d315 6f3b b38a 093d f835 a9bc
000001e0: 880d 04bd aa45 08bd b734 1ebd 62e9 38bd
000001f0: 1f89 c9bb 1ec6 5bbc 686d 00bc c6eb 50bd
00000200: e4f7 66bd 4d29 43bb 7747 243c 5fe3 b9bb
00000210: 1f52 de3c 881a 4abd b60b 673c d552 2cbd
00000220: d0a2 82bd 6412 18bd 22c5 b13c 6781 84bb
00000230: 2655 8a3b 4dd1 dbbc 20e2 87bb 6158 1cbc
00000240: db1e 8b3c 303b 78bd fef6 4f3c 0dd4 0abd
00000250: 713e 57bd 6085 debc 29a8 2e38 d976 0aba
00000260: 124c 9fbc c16a c23b 1bc2 373c e05d 563c
00000270: 0b39 263d 1f24 193c 498b 0abd 3d42 53bd
00000280: b327 ccbc b93a 633c a4b2 1d3d e4ac 64bd
00000290: 4684 273b 0c86 adbc 2332 bd3c 84da 94bc
000002a0: 4762 cc3c 7e98 28bb b9ac e83b 0b6e e1bc
000002b0: b06b 62bb 3240 dfbc c36b 383c 8853 5cbd
000002c0: 3651 c4bb 95f5 d2bc 5626 8a3c 4fa1 2abd
000002d0: af67 0e3c 2220 30bd 6879 d3bc 45cb 6b39
000002e0: 1563 12bd de2c 3dbb 151c d83b 5ad5 8fbc
000002f0: d906 dcbc f1ff 47bd 1951 e1bc 3f0e 55bd
00000300: 060f 85bd 50c4 2bbc 9470 98bc a6bd 73bb
00000310: a6fe 94bc dec3 6ab9 8626 febc f9c0 98ba
00000320: 64ef b0bc 4789 8bbc a671 3dbd 29c8 34bc
00000330: 1de7 e5bc 3e2c 7dbd 2778 0fbd afb0 7d3b
00000340: 660f 34bc 3719 65bd ff6d 29bd 2610 6abd
00000350: c2fc 213d 6d39 143d 1e74 f7bc f39b 0d3a
00000360: 33da e33c 7658 dbbc 41e3 eb3c 9edf 60ba
00000370: d101 2fbd 674b d83c 4609 0e3c 2922 04bd
00000380: 66c7 03bc 1198 8ebd c21e 62bd 308d cfbc
00000390: dab9 8fbb a212 a8bc cf16 88bb 1a8c 033a
000003a0: bd7a bb3c 7b1a 10bc 9e24 6b3c 4003 28bd
000003b0: 7aa1 97bc 7010 bcbc aa6f 42bd bd1d 1cbd
000003c0: 3c29 a2bc f997 15bc ff0c 443d 39f7 f03c
000003d0: c491 07bd 19ef 3dbd 3071 4cbd bd82 883b
000003e0: 868e 10ba aa78 01bd 175d 843c b0d3 52bc
000003f0: db27 9d3b 0894 2d3d 6802 3ebc 9703 123d

Linear1.bias f4 [128]
0.033862572 0.25361842 -0.05795222 0.323987 -0.06962573 0.0035340677 -0.09079207 -0.123324566
-0.034227595 -0.0015256274 -0.039204188 -0.008223953 0.028934674 0.34962556 0.0030901812 0.0064305426
-0.04064295 -0.055497542 -0.05066342 0.050880745 -0.05615489 -0.057429053 -0.02441734 -0.06344981
-0.052499685 0.37387267 0.041581556 0.47617418 -0.03517553 -0.15575609 -0.012378451 -0.04406271
-0.033700187 -0.370364 -0.12255858 -0.026210966 -0.1460794 -0.029442085 -0.4103744 -0.027053619
-0.054876816 -0.0318627 -0.09921224 -0.0033229627 0.25799465 0.15181394 0.009881383 -0.1124603
0.014802741 -0.0064863246 -0.0058574905 -0.2374553 -0.014129298 -0.09446256 -0.029810226 -0.011898452
-0.03919378 -0.083262324 -0.045267463 0.04425351 0.13194422 -0.018490585 -0.079475135 -0.07206141
0.025393955 0.09843439 0.14789718 -0.014290747 -0.048059076 -0.07439712 -0.06189217 0.034602035
-0.05290258 0.3509552 -0.021217376 0.008642815 0.09046602 -0.057779543 -0.13461523 0.4821215
-0.062039293 -0.033259034 0.028248185 0.15141428 -0.06009264 -0.017257549 -0.049474068 0.008136695
0.022130953 0.013108895 -0.0459705 -0.05253961 0.06977884 0.13049187 -0.061771337 0.30774957
-0.016506713 0.0039606025 -0.034150377 -0.08848843 0.31435293 0.04672223 -0.03064276 -0.07734449
0.08223643 0.2138807 -0.119077116 -0.084630065 -0.03549168 -0.13132878 -0.0840567 0.10342945
0.14169638 -0.018995866 0.12228802 -0.054290626 -0.037361696 -0.07982098 0.10975602 -0.068488844
0.33378407 0.010395692 -0.044656273 -0.007460876 -0.17384087 -0.05934134 -0.01539314 -0.065215535
00000000: 7bb3 0a3d 46da 813e 4f5f 6dbd a0e1 a53e
00000010: ef97 8ebd d19b 673b 31f1 b9bd 9791 fcbd
00000020: 3c32 0cbd 90f7 c7ba 9294 20bd c2bd 06bc
00000030: 6908 ed3c 1f02 b33e a384 4a3b 4db7 d23b
00000040: 3979 26bd 6451 63bd 7284 4fbd 5468 503d
00000050: ac02 66bd ba3a 6bbd e006 c8bc f9f1 81bd
00000060: e909 57bd 3d6c bf3e 6c51 2a3d 1acd f33e
00000070: 3714 10bd 867e 1fbe fdce 4abc 1a7b 34bd
00000080: 3509 0abd 5aa0 bdbe feff fabd 61b8 d6bc
00000090: d795 15be 8730 f1bc 981c d2be 8d9f ddbc
000000a0: 83c6 60bd 7682 02bd c92f cbbd 10c6 59bb
000000b0: e017 843e 1d75 1b3e 86e5 213c 9651 e6bd
000000c0: 3287 723c 3c8b d4bb 31f0 bfbb 7b27 73be
000000d0: 927e 67bc 9675 c1bd 9334 f4bc baf1 42bc
000000e0: a889 20bd 7085 aabd 606a 39bd 2b43 353d
000000f0: 631c 073e 9179 97bc dcc3 a2bd ef94 93bd
00000100: fc06 d03c f897 c93d 5c72 173e bd23 6abc
00000110: 98d9 44bd 845d 98bd a582 7dbd ddba 0d3d
00000120: 60b0 58bd 66b0 b33e 10d0 adbc 989a 0d3c
00000130: 4046 b93d 3eaa 6cbd 93d8 09be a1d8 f63e
00000140: ea1c 7ebd a03a 08bd bd68 e73c 580c 1b3e
00000150: b323 76bd b45f 8dbc 52a5 4abd c64f 053c
00000160: f94b b53c b1c6 563c 904b 3cbd c633 57bd
00000170: 35e8 8e3d a99f 053e f103 7dbd 5a91 9d3e
00000180: 1639 87bc f1c7 813b 44e1 0bbd 6c39 b5bd
00000190: def2 a03e cf5f 3f3d 8706 fbbc ca66 9ebd
000001a0: 936b a83d 8b03 5b3e b4de f3bd 8752 adbd
000001b0: b95f 11bd 0d7b 06be eb25 acbd d2d2 d33d
000001c0: db18 113e 389d 9bbc 2472 fa3d d95f 5ebd
000001d0: 9408 19bd 2f79 a3bd c4c7 e03d e143 8cbd
000001e0: bfe5 aa3e b152 2a3c 7fe9 36bd 5d7a f4bb
000001f0: 5703 32be e80f 73bd 8233 7cbc b98f 85bd

Linear2.weight f4 [10, 128]
-0.029377608 0.07774212 -0.074279726 -0.04643795 -0.08749346 0.17759688 0.10251486 -0.04257188
-0.046220884 0.06527466 -0.080760926 -0.0011609256 0.09200654 0.09638023 -0.10643407 0.037613686
-0.030435529 -0.09629743 -0.08213362 0.13219494 -0.03317643 -0.063852005 -0.081492536 0.0071328506
-0.035279036 -0.1640432 -0.17236592 -0.1977476 0.0148102995 -0.061264433 0.036119662 0.058597837
-0.05435655 -0.14147982 -0.15161419 0.061644427 -0.07665835 0.04933952 -0.040272832 -0.08511803
-0.08204872 0.018005338 0.088898785 0.03699775 0.049233254 -0.054365095 -0.27879006 0.10634913
-0.03449513 0.03122991 -0.01151007 0.07177687 0.023345595 -0.16436365 -0.06794758 -0.08260328
-0.09330892 -0.05712239 -0.09110756 0.1447168 -0.07209065 -0.06998784 -0.06832573 0.01443275
-0.00068315334 0.14830703 -0.2805491 -0.04354224 -0.020618672 0.011721579 -0.062058393 0.07678653
0.019928472 -0.026699042 -0.013836303 0.024764905 0.074690044 -0.07533603 -0.102083914 -0.11154679
0.0069953944 0.051033776 0.12927061 0.024830025 -0.08791629 -0.07123438 -0.08295357 0.1981589
-0.040748674 0.03708695 -0.18831122 0.07415684 -0.23517373 -0.29013634 -0.10779712 -0.32545584
0.009976153 0.040909015 -0.030796321 -0.3251518 0.039946157 0.13265559 -0.07969669 0.03064322
0.11023751 0.019235553 0.003100628 0.0014809724 0.15163207 0.1563733 -0.03727647 -0.22098802
-0.13245748 0.06314684 0.110550545 -0.059289806 -0.043031413 0.029161904 0.031242967 -0.065097675
0.014062629 0.05014068 0.02718945 0.13878894 -0.33731782 -0.05421568 -0.070301555 -0.21347344
0.014622987 -0.13917784 0.001996847 -0.27183735 -0.27791473 -0.14515425 -0.10630128 -0.075256206
-0.022049623 0.0013826456 0.059713613 0.15690903 -0.029125793 -0.059815694 0.086969934 -0.051776525
0.013514574 -0.21584013 -0.08031315 0.10528706 0.04438054 -0.015135914 -0.019298019 0.012433083
-0.056293175 -0.40855742 0.0707512 -0.15043892 0.020710737 -0.11122818 0.008934666 0.047450203
-0.06100685 0.19008277 -0.17547886 -0.123056225 0.131747 0.050608795 0.06575332 -0.27915385
-0.045092843 -0.04671742 0.2056223 -0.023674969 -0.095289886 -0.33171487 0.11693568 -0.0054703513
0.021516036 -0.022141792 -0.060146634 0.13638824 -0.040615804 0.21200675 0.055171657 -0.021637438
-0.030200126 -0.037190396 -0.06685234 0.09212145 -0.07039169 -0.072788 0.0043476596 -0.052797806
0.0131826615 -0.12220944 0.075209655 0.060333975 -0.007689645 -0.12600988 -0.07801275 -0.1127872
-0.026875762 -0.033729 0.05005885 0.030292831 -0.009959794 0.026492408 -0.14782184 -0.29865208
-0.110451974 -0.045473456 0.009508132 -0.060578924 0.013191858 0.06075826 -0.074239515 -0.3054305
0.059717163 0.01730345 0.08211568 0.06737844 -0.26966083 0.08778966 -0.06627582 -0.28705633
-0.10813961 0.008345048 0.13894059 -0.10747449 -0.0036572125 0.077728175 -0.05012798 -0.05467293
-0.12053903 -0.109194584 0.055903167 0.19843756 0.10775567 -0.09772802 -0.073420964 0.015577852
-0.13936056 -0.1617931 -0.018461479 -0.014221847 -0.042399656 0.11242799 -0.10255879 -0.06273296
-0.37080422 -0.056934655 -0.062175673 0.07417508 0.12979338 -0.09532794 0.026562622 -0.008375242
00000000: 4fa9 f0bc 4337 9f3d f81f 98bd b835 3ebd
00000010: c52f b3bd f5db 353e 50f3 d13d da5f 2ebd
00000020: 1c52 3dbd b9ae 853d fc65 a5bd 332a 98ba
00000030: ed6d bc3d ff62 c53d 1bfa d9bd cf10 1a3d
00000040: ee53 f9bc 9637 c5bd ac35 a8bd 1c5e 073e
00000050: 02e4 07bd d7c4 82bd 8fe5 a6bd b0ba e93b
00000060: c080 10bd f1fa 27be b180 30be 597e 4abe
00000070: e6a6 723c 6af0 7abd 36f2 133d 4904 703d
00000080: f9a4 5ebd 16e0 10be c040 1bbe de7e 7c3d
00000090: 0eff 9cbd 3d18 4a3d 20f5 24bd 5d52 aebd
000000a0: 2909 a8bd ee7f 933c 9110 b63d f48a 173d
000000b0: cfa8 493d efad 5ebd 92bd 8ebe 93cd d93d
000000c0: c44a 0dbd ded5 ff3c bc94 3cbc c0ff 923d
000000d0: 433f bf3c f24e 28be 1a28 8bbd e92b a9bd
000000e0: bf18 bfbd 2bf9 69bd 9a96 babd a430 143e
000000f0: 43a4 93bd c955 8fbd 5cee 8bbd 5777 6c3c
00000100: a515 33ba ccdd 173e 22a4 8fbe 5959 32bd
00000110: 7de8 a8bc de0b 403c f130 7ebd 4242 9d3d
00000120: 0941 a33c f3b7 dabc a9b1 62bc c5df ca3c
00000130: 18f7 983d c749 9abd 5f11 d1bd a572 e4bd
00000140: 9f39 e53b cb08 513d 845f 043e 5668 cb3c
00000150: 750d b4bd 55e3 91bd 90e3 a9bd 2bea 4a3e
00000160: 15e8 26bd 7ce8 173d a8d4 40be 8bdf 973d
00000170: 62d1 70be c08c 94be bdc4 dcbd 26a2 a6be
00000180: 0573 233c 3690 273d 9148 fcbc 4c7a a6be
00000190: 959e 233d ded6 073e 0538 a3bd 7d07 fb3c
000001a0: 34c4 e13d e193 9d3c e833 4b3b 301d c23a
000001b0: 7045 1b3e 5320 203e 36af 18bd af4a 62be
000001c0: efa2 07be 2153 813d 5368 e23d ded9 72bd
000001d0: b541 30bd f2e4 ee3c 40f1 ff3c ee51 85bd
000001e0: f166 663c 5060 4d3d 69bc de3c b01e 0e3e
000001f0: ecb4 acbe 4311 5ebd 43fa 8fbd c898 5abe
00000200: 4195 6f3c a384 0ebe 89dd 023b 442e 8bbe
00000210: d74a 8ebe 51a3 14be 7cb4 d9bd ed1f 9abd
00000220: 69a1 b4bc e339 b53a 4396 743d c3ac 203e
00000230: 3799 eebc 4d01 75bd 4b1d b23d 9f13 54bd
00000240: 3b6c 5d3c 3205 5dbe 397b a4bd bea0 d73d
00000250: 5ec8 353d a0fc 77bc e116 9ebc 21b4 4b3c
00000260: ac93 66bd 702e d1be 01e6 903d a90c 1abe
00000270: 90a9 a93c 9acb e3bd b562 123c 255b 423d
00000280: 52e2 79bd 0fa5 423e bbb0 33be e704 fcbd
00000290: b0e8 063e 2b4b 4f3d ada9 863d 41ed 8ebe
000002a0: 46b3 38bd c45a 3fbd a78e 523e 02f2 c1bc
000002b0: 5827 c3bd 88d6 a9be f97b ef3d a240 b3bb
000002c0: 6642 b03c b462 b5bc 515c 76bd 5ca9 0b3e
000002d0: c25c 26bd 4c18 593e adfb 613d ff40 b1bc
000002e0: 4166 f7bc f554 18bd e1e9 88bd 2caa bc3d
000002f0: 8529 90bd e011 95bd d076 8e3b 8342 58bd
00000300: 17fc 573c f148 fabd 8507 9a3d c220 773d
00000310: 6bf9 fbbb bc08 01be 26c5 9fbd fafc e6bd
00000320: 8f2a dcbc 6b27 0abd 820a 4d3d ac28 f83c
00000330: 672e 23bc 9b06 d93c 9c5e 17be ede8 98be
00000340: a534 e2bd 6042 3abd ffc7 1b3c 9b21 78bd
00000350: aa22 583c a7dd 783d e30a 98bd 6361 9cbe
00000360: fc99 743d f7bf 8d3c 442c a83d b5fd 893d
00000370: fc10 8abe 11cb b33d 9ebb 87bd 0cf9 92be
00000380: 4d78 ddbd abb9 083c 7146 0e3e 961b dcbd
00000390: d8ad 6fbb f32f 9f3d ff52 4dbd b9f0 5fbd
000003a0: 2bdd f6bd 69a1 dfbd b8fa 643d 3733 4b3e
000003b0: 01af dc3d a125 c8bd bb5d 96bd 3f3a 7f3c
000003c0: 89b4 0ebe 17ad 25be 873c 97bc c002 69bc
000003d0: 43ab 2dbd a540 e63d 580a d2bd 237a 80bd
000003e0: 0dda bdbe 5034 69bd ebab 7ebd 1be9 973d
000003f0: 8ee8 043e 4c3b c3bd db99 d93c 5038 09bc

Linear2.bias f4 [10]
0.066740334 -0.67318016 -0.2331775 0.2995297 0.3410349 -0.09028131 0.18631028 -0.027288621
-0.13443924 -0.0104076825
00000000: 28af 883d 8955 2cbf 15c6 6ebe f55b 993e
00000010: 209c ae3e 68e5 b8bd 1fc8 3e3e 638c dfbc
00000020: 71aa 09be fc84 2abc
